…
input_14 (InputLayer)           [(None, 600, 3)]     0                                            
__________________________________________________________________________________________________
input_15 (InputLayer)           [(None, 600, 1)]     0                                            
__________________________________________________________________________________________________
input_16 (InputLayer)           [(None, 600, 1)]     0                                            
__________________________________________________________________________________________________
concatenate (Concatenate)       (None, 600, 5)       0           input_1[0][0]                    
                                                                 input_2[0][0]                    
                                                                 input_3[0][0]                    
__________________________________________________________________________________________________
concatenate_1 (Concatenate)     (None, 600, 5)       0           input_6[0][0]                    
                                                                 input_7[0][0]                    
                                                                 input_8[0][0]                    
__________________________________________________________________________________________________
concatenate_3 (Concatenate)     (None, 600, 8)       0           input_4[0][0]                    
                                                                 input_9[0][0]                    
                                                                 input_5[0][0]                    
                                                                 input_10[0][0]                   
__________________________________________________________________________________________________
concatenate_4 (Concatenate)     (None, 600, 4)       0           input_4[0][0]                    
                                                                 input_5[0][0]                    
__________________________________________________________________________________________________
concatenate_5 (Concatenate)     (None, 600, 4)       0           input_9[0][0]                    
                                                                 input_10[0][0]                   
__________________________________________________________________________________________________
concatenate_2 (Concatenate)     (None, 600, 10)      0           input_1[0][0]                    
                                                                 input_6[0][0]                    
                                                                 input_12[0][0]                   
                                                                 input_11[0][0]                   
__________________________________________________________________________________________________
concatenate_6 (Concatenate)     (None, 600, 8)       0           input_13[0][0]                   
                                                                 input_14[0][0]                   
                                                                 input_15[0][0]                   
                                                                 input_16[0][0]                   
__________________________________________________________________________________________________
conv1d (Conv1D)                 (None, 300, 20)      1820        concatenate[0][0]                
__________________________________________________________________________________________________
conv1d_3 (Conv1D)               (None, 300, 20)      1820        concatenate_1[0][0]              
__________________________________________________________________________________________________
conv1d_9 (Conv1D)               (None, 300, 20)      2900        concatenate_3[0][0]              
__________________________________________________________________________________________________
conv1d_12 (Conv1D)              (None, 300, 20)      1460        concatenate_4[0][0]              
__________________________________________________________________________________________________
conv1d_15 (Conv1D)              (None, 300, 20)      1460        concatenate_5[0][0]              
__________________________________________________________________________________________________
conv1d_6 (Conv1D)               (None, 300, 20)      3620        concatenate_2[0][0]              
__________________________________________________________________________________________________
conv1d_18 (Conv1D)              (None, 300, 20)      2900        concatenate_6[0][0]              
__________________________________________________________________________________________________
batch_normalization (BatchNorma (None, 300, 20)      80          conv1d[0][0]                     
__________________________________________________________________________________________________
batch_normalization_6 (BatchNor (None, 300, 20)      80          conv1d_3[0][0]                   
__________________________________________________________________________________________________
batch_normalization_18 (BatchNo (None, 300, 20)      80          conv1d_9[0][0]                   
__________________________________________________________________________________________________
batch_normalization_24 (BatchNo (None, 300, 20)      80          conv1d_12[0][0]                  
__________________________________________________________________________________________________
batch_normalization_30 (BatchNo (None, 300, 20)      80          conv1d_15[0][0]                  
__________________________________________________________________________________________________
batch_normalization_12 (BatchNo (None, 300, 20)      80          conv1d_6[0][0]                   
__________________________________________________________________________________________________
batch_normalization_36 (BatchNo (None, 300, 20)      80          conv1d_18[0][0]                  
__________________________________________________________________________________________________
leaky_re_lu (LeakyReLU)         (None, 300, 20)      0           batch_normalization[0][0]        
__________________________________________________________________________________________________
leaky_re_lu_6 (LeakyReLU)       (None, 300, 20)      0           batch_normalization_6[0][0]      
__________________________________________________________________________________________________
leaky_re_lu_18 (LeakyReLU)      (None, 300, 20)      0           batch_normalization_18[0][0]     
__________________________________________________________________________________________________
leaky_re_lu_24 (LeakyReLU)      (None, 300, 20)      0           batch_normalization_24[0][0]     
__________________________________________________________________________________________________
leaky_re_lu_30 (LeakyReLU)      (None, 300, 20)      0           batch_normalization_30[0][0]     
__________________________________________________________________________________________________
leaky_re_lu_12 (LeakyReLU)      (None, 300, 20)      0           batch_normalization_12[0][0]     
__________________________________________________________________________________________________
leaky_re_lu_36 (LeakyReLU)      (None, 300, 20)      0           batch_normalization_36[0][0]     
__________________________________________________________________________________________________
gru (GRU)                       (None, 300, 40)      7440        leaky_re_lu[0][0]                
__________________________________________________________________________________________________
gru_3 (GRU)                     (None, 300, 40)      7440        leaky_re_lu_6[0][0]              
__________________________________________________________________________________________________
gru_9 (GRU)                     (None, 300, 40)      7440        leaky_re_lu_18[0][0]             
__________________________________________________________________________________________________
gru_12 (GRU)                    (None, 300, 40)      7440        leaky_re_lu_24[0][0]             
__________________________________________________________________________________________________
gru_15 (GRU)                    (None, 300, 40)      7440        leaky_re_lu_30[0][0]             
__________________________________________________________________________________________________
gru_6 (GRU)                     (None, 300, 40)      7440        leaky_re_lu_12[0][0]             
__________________________________________________________________________________________________
gru_18 (GRU)                    (None, 300, 40)      7440        leaky_re_lu_36[0][0]             
__________________________________________________________________________________________________
batch_normalization_1 (BatchNor (None, 300, 40)      160         gru[0][0]                        
__________________________________________________________________________________________________
batch_normalization_7 (BatchNor (None, 300, 40)      160         gru_3[0][0]                      
__________________________________________________________________________________________________
batch_normalization_19 (BatchNo (None, 300, 40)      160         gru_9[0][0]                      
__________________________________________________________________________________________________
batch_normalization_25 (BatchNo (None, 300, 40)      160         gru_12[0][0]                     
__________________________________________________________________________________________________
batch_normalization_31 (BatchNo (None, 300, 40)      160         gru_15[0][0]                     
__________________________________________________________________________________________________
batch_normalization_13 (BatchNo (None, 300, 40)      160         gru_6[0][0]                      
__________________________________________________________________________________________________
batch_normalization_37 (BatchNo (None, 300, 40)      160         gru_18[0][0]                     
__________________________________________________________________________________________________
leaky_re_lu_1 (LeakyReLU)       (None, 300, 40)      0           batch_normalization_1[0][0]      
__________________________________________________________________________________________________
leaky_re_lu_7 (LeakyReLU)       (None, 300, 40)      0           batch_normalization_7[0][0]      
__________________________________________________________________________________________________
leaky_re_lu_19 (LeakyReLU)      (None, 300, 40)      0           batch_normalization_19[0][0]     
__________________________________________________________________________________________________
leaky_re_lu_25 (LeakyReLU)      (None, 300, 40)      0           batch_normalization_25[0][0]     
__________________________________________________________________________________________________
leaky_re_lu_31 (LeakyReLU)      (None, 300, 40)      0           batch_normalization_31[0][0]     
__________________________________________________________________________________________________
leaky_re_lu_13 (LeakyReLU)      (None, 300, 40)      0           batch_normalization_13[0][0]     
__________________________________________________________________________________________________
leaky_re_lu_37 (LeakyReLU)      (None, 300, 40)      0           batch_normalization_37[0][0]     
__________________________________________________________________________________________________
conv1d_1 (Conv1D)               (None, 150, 120)     43320       leaky_re_lu_1[0][0]              
__________________________________________________________________________________________________
conv1d_4 (Conv1D)               (None, 150, 120)     43320       leaky_re_lu_7[0][0]              
__________________________________________________________________________________________________
conv1d_10 (Conv1D)              (None, 150, 120)     43320       leaky_re_lu_19[0][0]             
__________________________________________________________________________________________________
conv1d_13 (Conv1D)              (None, 150, 120)     43320       leaky_re_lu_25[0][0]             
__________________________________________________________________________________________________
conv1d_16 (Conv1D)              (None, 150, 120)     43320       leaky_re_lu_31[0][0]             
__________________________________________________________________________________________________
conv1d_7 (Conv1D)               (None, 150, 120)     43320       leaky_re_lu_13[0][0]             
__________________________________________________________________________________________________
conv1d_19 (Conv1D)              (None, 150, 120)     43320       leaky_re_lu_37[0][0]             
__________________________________________________________________________________________________
batch_normalization_2 (BatchNor (None, 150, 120)     480         conv1d_1[0][0]                   
__________________________________________________________________________________________________
batch_normalization_8 (BatchNor (None, 150, 120)     480         conv1d_4[0][0]                   
__________________________________________________________________________________________________
batch_normalization_20 (BatchNo (None, 150, 120)     480         conv1d_10[0][0]                  
__________________________________________________________________________________________________
batch_normalization_26 (BatchNo (None, 150, 120)     480         conv1d_13[0][0]                  
__________________________________________________________________________________________________
batch_normalization_32 (BatchNo (None, 150, 120)     480         conv1d_16[0][0]                  
__________________________________________________________________________________________________
batch_normalization_14 (BatchNo (None, 150, 120)     480         conv1d_7[0][0]                   
__________________________________________________________________________________________________
batch_normalization_38 (BatchNo (None, 150, 120)     480         conv1d_19[0][0]                  
__________________________________________________________________________________________________
leaky_re_lu_2 (LeakyReLU)       (None, 150, 120)     0           batch_normalization_2[0][0]      
__________________________________________________________________________________________________
leaky_re_lu_8 (LeakyReLU)       (None, 150, 120)     0           batch_normalization_8[0][0]      
__________________________________________________________________________________________________
leaky_re_lu_20 (LeakyReLU)      (None, 150, 120)     0           batch_normalization_20[0][0]     
__________________________________________________________________________________________________
leaky_re_lu_26 (LeakyReLU)      (None, 150, 120)     0           batch_normalization_26[0][0]     
__________________________________________________________________________________________________
leaky_re_lu_32 (LeakyReLU)      (None, 150, 120)     0           batch_normalization_32[0][0]     
__________________________________________________________________________________________________
leaky_re_lu_14 (LeakyReLU)      (None, 150, 120)     0           batch_normalization_14[0][0]     
__________________________________________________________________________________________________
leaky_re_lu_38 (LeakyReLU)      (None, 150, 120)     0           batch_normalization_38[0][0]     
__________________________________________________________________________________________________
gru_1 (GRU)                     (None, 150, 120)     87120       leaky_re_lu_2[0][0]              
__________________________________________________________________________________________________
gru_4 (GRU)                     (None, 150, 120)     87120       leaky_re_lu_8[0][0]              
__________________________________________________________________________________________________
gru_10 (GRU)                    (None, 150, 120)     87120       leaky_re_lu_20[0][0]             
__________________________________________________________________________________________________
gru_13 (GRU)                    (None, 150, 120)     87120       leaky_re_lu_26[0][0]             
__________________________________________________________________________________________________
gru_16 (GRU)                    (None, 150, 120)     87120       leaky_re_lu_32[0][0]             
__________________________________________________________________________________________________
gru_7 (GRU)                     (None, 150, 120)     87120       leaky_re_lu_14[0][0]             
__________________________________________________________________________________________________
gru_19 (GRU)                    (None, 150, 120)     87120       leaky_re_lu_38[0][0]             
__________________________________________________________________________________________________
batch_normalization_3 (BatchNor (None, 150, 120)     480         gru_1[0][0]                      
__________________________________________________________________________________________________
batch_normalization_9 (BatchNor (None, 150, 120)     480         gru_4[0][0]                      
__________________________________________________________________________________________________
batch_normalization_21 (BatchNo (None, 150, 120)     480         gru_10[0][0]                     
__________________________________________________________________________________________________
batch_normalization_27 (BatchNo (None, 150, 120)     480         gru_13[0][0]                     
__________________________________________________________________________________________________
batch_normalization_33 (BatchNo (None, 150, 120)     480         gru_16[0][0]                     
__________________________________________________________________________________________________
batch_normalization_15 (BatchNo (None, 150, 120)     480         gru_7[0][0]                      
__________________________________________________________________________________________________
batch_normalization_39 (BatchNo (None, 150, 120)     480         gru_19[0][0]                     
__________________________________________________________________________________________________
leaky_re_lu_3 (LeakyReLU)       (None, 150, 120)     0           batch_normalization_3[0][0]      
__________________________________________________________________________________________________
leaky_re_lu_9 (LeakyReLU)       (None, 150, 120)     0           batch_normalization_9[0][0]      
__________________________________________________________________________________________________
leaky_re_lu_21 (LeakyReLU)      (None, 150, 120)     0           batch_normalization_21[0][0]     
__________________________________________________________________________________________________
leaky_re_lu_27 (LeakyReLU)      (None, 150, 120)     0           batch_normalization_27[0][0]     
__________________________________________________________________________________________________
leaky_re_lu_33 (LeakyReLU)      (None, 150, 120)     0           batch_normalization_33[0][0]     
__________________________________________________________________________________________________
leaky_re_lu_15 (LeakyReLU)      (None, 150, 120)     0           batch_normalization_15[0][0]     
__________________________________________________________________________________________________
leaky_re_lu_39 (LeakyReLU)      (None, 150, 120)     0           batch_normalization_39[0][0]     
__________________________________________________________________________________________________
conv1d_2 (Conv1D)               (None, 75, 120)      129720      leaky_re_lu_3[0][0]              
__________________________________________________________________________________________________
conv1d_5 (Conv1D)               (None, 75, 120)      129720      leaky_re_lu_9[0][0]              
__________________________________________________________________________________________________
conv1d_11 (Conv1D)              (None, 75, 120)      129720      leaky_re_lu_21[0][0]             
__________________________________________________________________________________________________
conv1d_14 (Conv1D)              (None, 75, 120)      129720      leaky_re_lu_27[0][0]             
__________________________________________________________________________________________________
conv1d_17 (Conv1D)              (None, 75, 120)      129720      leaky_re_lu_33[0][0]             
__________________________________________________________________________________________________
conv1d_8 (Conv1D)               (None, 75, 120)      129720      leaky_re_lu_15[0][0]             
__________________________________________________________________________________________________
conv1d_20 (Conv1D)              (None, 75, 120)      129720      leaky_re_lu_39[0][0]             
__________________________________________________________________________________________________
batch_normalization_4 (BatchNor (None, 75, 120)      480         conv1d_2[0][0]                   
__________________________________________________________________________________________________
batch_normalization_10 (BatchNo (None, 75, 120)      480         conv1d_5[0][0]                   
__________________________________________________________________________________________________
batch_normalization_22 (BatchNo (None, 75, 120)      480         conv1d_11[0][0]                  
__________________________________________________________________________________________________
batch_normalization_28 (BatchNo (None, 75, 120)      480         conv1d_14[0][0]                  
__________________________________________________________________________________________________
batch_normalization_34 (BatchNo (None, 75, 120)      480         conv1d_17[0][0]                  
__________________________________________________________________________________________________
batch_normalization_16 (BatchNo (None, 75, 120)      480         conv1d_8[0][0]                   
__________________________________________________________________________________________________
batch_normalization_40 (BatchNo (None, 75, 120)      480         conv1d_20[0][0]                  
__________________________________________________________________________________________________
leaky_re_lu_4 (LeakyReLU)       (None, 75, 120)      0           batch_normalization_4[0][0]      
__________________________________________________________________________________________________
leaky_re_lu_10 (LeakyReLU)      (None, 75, 120)      0           batch_normalization_10[0][0]     
__________________________________________________________________________________________________
leaky_re_lu_22 (LeakyReLU)      (None, 75, 120)      0           batch_normalization_22[0][0]     
__________________________________________________________________________________________________
leaky_re_lu_28 (LeakyReLU)      (None, 75, 120)      0           batch_normalization_28[0][0]     
__________________________________________________________________________________________________
leaky_re_lu_34 (LeakyReLU)      (None, 75, 120)      0           batch_normalization_34[0][0]     
__________________________________________________________________________________________________
leaky_re_lu_16 (LeakyReLU)      (None, 75, 120)      0           batch_normalization_16[0][0]     
__________________________________________________________________________________________________
leaky_re_lu_40 (LeakyReLU)      (None, 75, 120)      0           batch_normalization_40[0][0]     
__________________________________________________________________________________________________
gru_2 (GRU)                     (None, 75, 120)      87120       leaky_re_lu_4[0][0]              
__________________________________________________________________________________________________
gru_5 (GRU)                     (None, 75, 120)      87120       leaky_re_lu_10[0][0]             
__________________________________________________________________________________________________
gru_11 (GRU)                    (None, 75, 120)      87120       leaky_re_lu_22[0][0]             
__________________________________________________________________________________________________
gru_14 (GRU)                    (None, 75, 120)      87120       leaky_re_lu_28[0][0]             
__________________________________________________________________________________________________
gru_17 (GRU)                    (None, 75, 120)      87120       leaky_re_lu_34[0][0]             
__________________________________________________________________________________________________
gru_8 (GRU)                     (None, 75, 120)      87120       leaky_re_lu_16[0][0]             
__________________________________________________________________________________________________
gru_20 (GRU)                    (None, 75, 120)      87120       leaky_re_lu_40[0][0]             
__________________________________________________________________________________________________
batch_normalization_5 (BatchNor (None, 75, 120)      480         gru_2[0][0]                      
__________________________________________________________________________________________________
batch_normalization_11 (BatchNo (None, 75, 120)      480         gru_5[0][0]                      
__________________________________________________________________________________________________
batch_normalization_23 (BatchNo (None, 75, 120)      480         gru_11[0][0]                     
__________________________________________________________________________________________________
batch_normalization_29 (BatchNo (None, 75, 120)      480         gru_14[0][0]                     
__________________________________________________________________________________________________
batch_normalization_35 (BatchNo (None, 75, 120)      480         gru_17[0][0]                     
__________________________________________________________________________________________________
batch_normalization_17 (BatchNo (None, 75, 120)      480         gru_8[0][0]                      
__________________________________________________________________________________________________
batch_normalization_41 (BatchNo (None, 75, 120)      480         gru_20[0][0]                     
__________________________________________________________________________________________________
leaky_re_lu_5 (LeakyReLU)       (None, 75, 120)      0           batch_normalization_5[0][0]      
__________________________________________________________________________________________________
leaky_re_lu_11 (LeakyReLU)      (None, 75, 120)      0           batch_normalization_11[0][0]     
__________________________________________________________________________________________________
leaky_re_lu_23 (LeakyReLU)      (None, 75, 120)      0           batch_normalization_23[0][0]     
__________________________________________________________________________________________________
leaky_re_lu_29 (LeakyReLU)      (None, 75, 120)      0           batch_normalization_29[0][0]     
__________________________________________________________________________________________________
leaky_re_lu_35 (LeakyReLU)      (None, 75, 120)      0           batch_normalization_35[0][0]     
__________________________________________________________________________________________________
leaky_re_lu_17 (LeakyReLU)      (None, 75, 120)      0           batch_normalization_17[0][0]     
__________________________________________________________________________________________________
leaky_re_lu_41 (LeakyReLU)      (None, 75, 120)      0           batch_normalization_41[0][0]     
__________________________________________________________________________________________________
concatenate_7 (Concatenate)     (None, 75, 840)      0           leaky_re_lu_5[0][0]              
                                                                 leaky_re_lu_11[0][0]             
                                                                 leaky_re_lu_23[0][0]             
                                                                 leaky_re_lu_29[0][0]             
                                                                 leaky_re_lu_35[0][0]             
                                                                 leaky_re_lu_17[0][0]             
                                                                 leaky_re_lu_41[0][0]             
__________________________________________________________________________________________________
conv1d_22 (Conv1D)              (None, 75, 60)       453660      concatenate_7[0][0]              
__________________________________________________________________________________________________
batch_normalization_42 (BatchNo (None, 75, 60)       240         conv1d_22[0][0]                  
__________________________________________________________________________________________________
leaky_re_lu_42 (LeakyReLU)      (None, 75, 60)       0           batch_normalization_42[0][0]     
__________________________________________________________________________________________________
conv1d_23 (Conv1D)              (None, 75, 120)      43320       leaky_re_lu_42[0][0]             
__________________________________________________________________________________________________
batch_normalization_43 (BatchNo (None, 75, 120)      480         conv1d_23[0][0]                  
__________________________________________________________________________________________________
leaky_re_lu_43 (LeakyReLU)      (None, 75, 120)      0           batch_normalization_43[0][0]     
__________________________________________________________________________________________________
conv1d_24 (Conv1D)              (None, 75, 60)       21660       leaky_re_lu_43[0][0]             
__________________________________________________________________________________________________
batch_normalization_44 (BatchNo (None, 75, 60)       240         conv1d_24[0][0]                  
__________________________________________________________________________________________________
leaky_re_lu_44 (LeakyReLU)      (None, 75, 60)       0           batch_normalization_44[0][0]     
__________________________________________________________________________________________________
conv1d_21 (Conv1D)              (None, 75, 60)       907260      concatenate_7[0][0]              
__________________________________________________________________________________________________
add (Add)                       (None, 75, 60)       0           leaky_re_lu_44[0][0]             
                                                                 conv1d_21[0][0]                  
__________________________________________________________________________________________________
batch_normalization_45 (BatchNo (None, 75, 60)       240         add[0][0]                        
__________________________________________________________________________________________________
conv1d_25 (Conv1D)              (None, 75, 60)       32460       batch_normalization_45[0][0]     
__________________________________________________________________________________________________
batch_normalization_46 (BatchNo (None, 75, 60)       240         conv1d_25[0][0]                  
__________________________________________________________________________________________________
leaky_re_lu_45 (LeakyReLU)      (None, 75, 60)       0           batch_normalization_46[0][0]     
__________________________________________________________________________________________________
conv1d_26 (Conv1D)              (None, 75, 120)      43320       leaky_re_lu_45[0][0]             
__________________________________________________________________________________________________
batch_normalization_47 (BatchNo (None, 75, 120)      480         conv1d_26[0][0]                  
__________________________________________________________________________________________________
leaky_re_lu_46 (LeakyReLU)      (None, 75, 120)      0           batch_normalization_47[0][0]     
__________________________________________________________________________________________________
conv1d_27 (Conv1D)              (None, 75, 60)       21660       leaky_re_lu_46[0][0]             
__________________________________________________________________________________________________
batch_normalization_48 (BatchNo (None, 75, 60)       240         conv1d_27[0][0]                  
__________________________________________________________________________________________________
leaky_re_lu_47 (LeakyReLU)      (None, 75, 60)       0           batch_normalization_48[0][0]     
__________________________________________________________________________________________________
add_1 (Add)                     (None, 75, 60)       0           leaky_re_lu_47[0][0]             
                                                                 batch_normalization_45[0][0]     
__________________________________________________________________________________________________
batch_normalization_49 (BatchNo (None, 75, 60)       240         add_1[0][0]                      
__________________________________________________________________________________________________
conv1d_28 (Conv1D)              (None, 75, 60)       32460       batch_normalization_49[0][0]     
__________________________________________________________________________________________________
batch_normalization_50 (BatchNo (None, 75, 60)       240         conv1d_28[0][0]                  
__________________________________________________________________________________________________
leaky_re_lu_48 (LeakyReLU)      (None, 75, 60)       0           batch_normalization_50[0][0]     
__________________________________________________________________________________________________
conv1d_29 (Conv1D)              (None, 75, 120)      43320       leaky_re_lu_48[0][0]             
__________________________________________________________________________________________________
batch_normalization_51 (BatchNo (None, 75, 120)      480         conv1d_29[0][0]                  
__________________________________________________________________________________________________
leaky_re_lu_49 (LeakyReLU)      (None, 75, 120)      0           batch_normalization_51[0][0]     
__________________________________________________________________________________________________
conv1d_30 (Conv1D)              (None, 75, 60)       21660       leaky_re_lu_49[0][0]             
__________________________________________________________________________________________________
batch_normalization_52 (BatchNo (None, 75, 60)       240         conv1d_30[0][0]                  
__________________________________________________________________________________________________
leaky_re_lu_50 (LeakyReLU)      (None, 75, 60)       0           batch_normalization_52[0][0]     
__________________________________________________________________________________________________
add_2 (Add)                     (None, 75, 60)       0           leaky_re_lu_50[0][0]             
                                                                 batch_normalization_49[0][0]     
__________________________________________________________________________________________________
batch_normalization_53 (BatchNo (None, 75, 60)       240         add_2[0][0]                      
__________________________________________________________________________________________________
conv1d_31 (Conv1D)              (None, 75, 60)       32460       batch_normalization_53[0][0]     
__________________________________________________________________________________________________
batch_normalization_54 (BatchNo (None, 75, 60)       240         conv1d_31[0][0]                  
__________________________________________________________________________________________________
leaky_re_lu_51 (LeakyReLU)      (None, 75, 60)       0           batch_normalization_54[0][0]     
__________________________________________________________________________________________________
conv1d_32 (Conv1D)              (None, 75, 120)      43320       leaky_re_lu_51[0][0]             
__________________________________________________________________________________________________
batch_normalization_55 (BatchNo (None, 75, 120)      480         conv1d_32[0][0]                  
__________________________________________________________________________________________________
leaky_re_lu_52 (LeakyReLU)      (None, 75, 120)      0           batch_normalization_55[0][0]     
__________________________________________________________________________________________________
conv1d_33 (Conv1D)              (None, 75, 60)       21660       leaky_re_lu_52[0][0]             
__________________________________________________________________________________________________
batch_normalization_56 (BatchNo (None, 75, 60)       240         conv1d_33[0][0]                  
__________________________________________________________________________________________________
leaky_re_lu_53 (LeakyReLU)      (None, 75, 60)       0           batch_normalization_56[0][0]     
__________________________________________________________________________________________________
add_3 (Add)                     (None, 75, 60)       0           leaky_re_lu_53[0][0]             
                                                                 batch_normalization_53[0][0]     
__________________________________________________________________________________________________
batch_normalization_57 (BatchNo (None, 75, 60)       240         add_3[0][0]                      
__________________________________________________________________________________________________
conv1d_34 (Conv1D)              (None, 75, 60)       32460       batch_normalization_57[0][0]     
__________________________________________________________________________________________________
batch_normalization_58 (BatchNo (None, 75, 60)       240         conv1d_34[0][0]                  
__________________________________________________________________________________________________
leaky_re_lu_54 (LeakyReLU)      (None, 75, 60)       0           batch_normalization_58[0][0]     
__________________________________________________________________________________________________
conv1d_35 (Conv1D)              (None, 75, 120)      43320       leaky_re_lu_54[0][0]             
__________________________________________________________________________________________________
batch_normalization_59 (BatchNo (None, 75, 120)      480         conv1d_35[0][0]                  
__________________________________________________________________________________________________
leaky_re_lu_55 (LeakyReLU)      (None, 75, 120)      0           batch_normalization_59[0][0]     
__________________________________________________________________________________________________
conv1d_36 (Conv1D)              (None, 75, 60)       21660       leaky_re_lu_55[0][0]             
__________________________________________________________________________________________________
batch_normalization_60 (BatchNo (None, 75, 60)       240         conv1d_36[0][0]                  
__________________________________________________________________________________________________
leaky_re_lu_56 (LeakyReLU)      (None, 75, 60)       0           batch_normalization_60[0][0]     
__________________________________________________________________________________________________
add_4 (Add)                     (None, 75, 60)       0           leaky_re_lu_56[0][0]             
                                                                 batch_normalization_57[0][0]     
__________________________________________________________________________________________________
batch_normalization_61 (BatchNo (None, 75, 60)       240         add_4[0][0]                      
__________________________________________________________________________________________________
global_average_pooling1d (Globa (None, 60)           0           batch_normalization_61[0][0]     
__________________________________________________________________________________________________
dense (Dense)                   (None, 61)           3721        global_average_pooling1d[0][0]   
==================================================================================================
Total params: 4,339,521
Trainable params: 4,328,961
Non-trainable params: 10,560
__________________________________________________________________________________________________
